Hugging_Face/notebooks/unit4/pixelcopter_policy.pt (torch, 40601 bytes, 6 tensors)

weight f4 [64, 7]
-0.0695236 0.15426007 -0.008011073 0.0051962733 -0.2897691 -0.3544996 0.20891109 -0.069523215
-0.012105823 -0.18967287 0.0857099 -0.34566122 -0.27277637 -0.074050695 -0.05261431 0.97828984
-0.0024467134 -0.2274997 0.21501054 0.28949168 0.1359161 -0.09410408 -0.027333796 0.092844635
0.11224285 -0.3383932 0.18247285 -0.27150688 0.015734345 0.058042526 -0.123787284 0.096529216
-0.010559469 -0.08131099 -0.33554527 -0.09187272 -0.3331591 -0.31983498 0.007464439 0.23859584
0.16197498 -0.13523489 0.28828168 -1.017343 -0.11768784 0.36494613 -0.09674537 0.17138489
-0.18871713 0.14364213 -0.25176343 0.2639775 0.34434295 -0.32313824 -0.1065304 -0.020926403
-0.32080072 -0.46753213 0.28214693 0.37741008 0.23996803 -0.07641426 0.084034815 0.020370658
-0.67162585 0.26729152 0.10320993 0.19065738 0.17397876 -0.17285378 0.21136457 0.37428138
0.06895702 -0.18463689 -0.33013815 -0.23912792 0.2668895 -0.12698045 0.23794326 -0.12123656
-0.27909032 0.100260615 -0.14779106 -0.33560058 -0.12955368 0.5968296 -0.2981474 -0.22012734
0.1365685 0.12767382 0.23566717 0.0879652 -1.0380445 0.05203702 0.41725522 -0.19652295
0.001142584 0.13739966 -0.3460533 0.13927141 0.13620904 -0.19876783 -0.37322322 -0.36789012
-0.10991603 -0.34951082 -0.47232026 -0.13138565 -0.065380186 -0.19876519 0.053844213 0.2779876
0.1218295 -0.94666207 0.077813245 0.13226458 -0.09049206 0.07845609 0.22212075 -0.38023776
0.27531347 0.027043752 -0.34960923 -0.30388668 0.009371037 0.22512084 0.08946473 0.5929894
0.2854824 -0.04656951 -0.24558571 -0.10457008 -0.18071838 -0.028388262 -0.095472604 -0.19409984
-0.34767556 -0.26775116 -0.20988183 0.12663528 0.36402637 0.96295106 0.23690411 -0.30731422
-0.32854927 0.32030603 -0.16910388 -0.37810776 -0.79281133 -0.06325936 0.3205145 0.34785578
0.25910813 0.28767702 0.1785489 -0.75182045 0.051585484 0.19210204 -0.06548478 -0.33802506
0.34523526 -0.101667166 -0.4432217 0.15632032 0.09837467 0.23217963 -0.14912747 -0.10821102
0.3697491 0.62788475 0.05507945 0.04215835 -0.32456183 -0.09710299 0.25319877 0.21440333
0.7178429 0.19894436 -0.13939531 0.36262658 0.1653799 -0.050565045 -0.09580095 0.8453395
-0.12058652 -0.14986494 0.1889167 0.3545215 0.15145919 0.08058644 0.020793006 -0.18675484
-0.30691028 0.35176545 -0.12739891 -0.34843284 0.09007686 0.71871656 0.29196826 -0.30869105
0.24397112 -0.024050249 -0.26562327 -0.2886868 -0.446225 -0.26217723 -0.006350157 0.3923735
-0.080403075 0.09730037 -0.28882286 -0.15003647 0.15805253 0.20885815 -0.33648977 0.11344214
0.17841426 -0.15122746 -0.987279 0.16394395 0.03806445 -0.04465649 0.097207725 0.07999516
-0.082248576 -0.8069264 -0.23005323 0.059061866 0.020224739 -0.1788833 0.3951079 0.23123047
0.118094385 -0.127569 -0.16158652 -0.34284154 -0.3426003 -0.0029877762 -0.021297814 -0.56025195
-0.27086052 -0.09741053 0.0031549565 -0.012874046 0.3012118 0.19799985 0.72129923 -0.18951707
-0.24482024 0.09154647 0.26086026 0.17244251 -0.2868396 0.715506 0.041229494 0.11910385
00000000: 6462 8ebd 5af6 1d3e e040 03bc 8045 aa3b
00000010: 9e5c 94be f980 b5be caec 553e 3062 8ebd
00000020: 8057 46bc 9b39 42be ac88 af3d 82fa b0be
00000030: 58a9 8bbe e4a7 97bd 1a82 57bd 3471 7a3f
00000040: 0a59 20bb aef5 68be b92b 5c3e 4138 943e
00000050: 972d 0b3e a4b9 c0bd 20eb dfbc 5425 be3d
00000060: 94df e53d e041 adbe 2ada 3a3e f302 8bbe
00000070: 50e5 803c 00be 6d3d 3084 fdbd 1cb1 c53d
00000080: a001 2dbc 6086 a6bd 97cc abbe c427 bcbd
00000090: d493 aabe 69c1 a3be 4198 f43b 7852 743e
000000a0: c5dc 253e 047b 0abe a899 933e 4c38 82bf
000000b0: 5206 f1bd 38da ba3e 7022 c6bd 857f 2f3e
000000c0: 103f 41be ec16 133e 23e7 80be 0f28 873e
000000d0: b84d b03e 6072 a5be 9c2c dabd d96d abbc
000000e0: fe3f a4be 5f60 efbe 9075 903e e53b c13e
000000f0: 2eba 753e 147f 9cbd 721a ac3d 5ee0 a63c
00000100: acef 2bbf 6fda 883e ba5f d33d b03b 433e
00000110: 7d27 323e 9500 31be f46f 583e cfa1 bf3e
00000120: 5739 8d3d 7411 3dbe de07 a9be f3dd 74be
00000130: bea5 883e 2a07 02be 66a7 733e e04a f8bd
00000140: ede4 8ebe 7055 cd3d 8a56 17be d7d3 abbe
00000150: b8a9 04be d3c9 183f c7a6 98be 1069 61be
00000160: 9dd8 0b3e edbc 023e bc52 713e 1927 b43d
00000170: a4de 84bf c524 553d 7aa2 d53e 503d 49be
00000180: c2c2 953a 7fb2 0c3e e62d b1be 2a9d 0e3e
00000190: 627a 0b3e cb89 4bbe 1d17 bfbe 185c bcbe
000001a0: a81b e1bd 15f3 b2be f6d3 f1be f689 06be
000001b0: 0ce6 85bd 1a89 4bbe c08b 5c3d 6454 8e3e
000001c0: bf81 f93d 7258 72bf 8d5c 9f3d 5e70 073e
000001d0: e753 b9bd 96ad a03d 9f73 633e 86ae c2be
000001e0: e3f5 8c3e dc8a dd3c fbff b2be 0997 9bbe
000001f0: fa88 193c 1486 663e 4939 b73d 27ce 173f
00000200: c02a 923e acbf 3ebd d27a 7bbe d728 d6bd
00000210: 3d0e 39be 808e e8bc 2487 c3bd 1cc2 46be
00000220: 8802 b2be ae16 89be 43eb 56be aeac 013e
00000230: aa61 ba3e f683 763f fe96 723e 4a58 9dbe
00000240: 9c37 a8be 27ff a33e 9129 2dbe 5797 c1be
00000250: aff5 4abf 208e 81bd 7a1a a43e 271a b23e
00000260: d2a9 843e 674a 933e 86d5 363e 4e77 40bf
00000270: 4d4b 533d 66b6 443e e21c 86bd 9f11 adbe
00000280: adc2 b03e e036 d0bd f4ed e2be 6f12 203e
00000290: a978 c93d 7fc0 6d3e dfb4 18be bd9d ddbd
000002a0: c14f bd3e 0ebd 203f fd9a 613d 3cae 2c3d
000002b0: f82c a6be efdd c6bd 45a3 813e 8c8c 5b3e
000002c0: 8dc4 373f 12b8 4b3e a5bd 0ebe 31aa b93e
000002d0: 5959 293e 4b1d 4fbd 4a33 c4bd 2b68 583f
000002e0: 11f6 f6bd 3276 19be 6173 413e d883 b53e
000002f0: 1e18 1b3e 810a a53d 1856 aa3c a93c 3fbe
00000300: 5823 9dbe 9a1a b43e dc74 02be ca65 b2be
00000310: 377a b83d cffd 373f dd7c 953e c10c 9ebe
00000320: 91d3 793e 0705 c5bc c6ff 87be c2ce 93be
00000330: 9a77 e4be 183c 86be fa14 d0bb 2ee5 c83e
00000340: 5eaa a4bd 6b45 c73d 97e0 93be 29a3 19be
00000350: 86d8 213e e9de 553e 6348 acbe 5a54 e83d
00000360: 3ab2 363e 5fdb 1abe 51be 7cbf ece0 273e
00000370: 78e9 1b3d b9e9 36bd d814 c73d 81d4 a33d
00000380: f171 a8bd bb92 4ebf 1393 6bbe dbea 713d
00000390: 5aae a53c 2f2d 37be 954b ca3e aec7 6c3e
000003a0: 78db f13d 73a1 02be f076 25be ed88 afbe
000003b0: 4e69 afbe 91ce 43bb c178 aebc ac6c 0fbf
000003c0: 3bae 8abe 2c7f c7bd 63c3 4e3b aaed 52bc
000003d0: 6f38 9a3e 79c0 4a3e 11a7 383f c310 42be
000003e0: 28b2 7abe b77c bb3d 7a8f 853e c594 303e
000003f0: a4dc 92be 672b 373f 42e0 283d b8ec f33d

bias f4 [64]
-0.12603611 -0.104209244 0.29585904 -0.090942204 0.27198645 -0.0027220456 0.24275772 -0.34725747
-0.17991517 0.14208773 -0.055426564 0.13479677 0.020385673 0.18894008 0.32952705 0.022637945
-0.02452565 0.31840578 0.3683764 -0.18696946 -0.20900278 0.087069675 0.31377774 0.2888458
0.29375854 -0.03417799 0.29530162 0.25583434 0.18469432 0.024341412 -0.24420382 0.40962997
0.2844923 -0.32716915 -0.2929058 -0.24870051 0.35179546 -0.2106262 0.3373385 -0.082228154
-0.25880927 0.24586147 0.26665676 -0.1735571 0.103569835 -0.12681533 0.1877329 -0.33335844
0.34050345 -0.36433434 0.4096411 0.061349858 -0.26809964 -0.39906943 -0.37164426 -0.30951607
-0.21283059 -0.1532464 -0.16054404 0.342975 0.16812383 0.10707073 -0.23668946 0.18713637
00000000: 9c0f 01be a86b d5bd d67a 973e e83f babd
00000010: cf41 8b3e 5964 32bb 7b95 783e bbcb b1be
00000020: af3b 38be 727f 113e f706 63bd 2a08 0a3e
00000030: dbff a63c 8279 413e c5b7 a83e 3673 b93c
00000040: 04ea c8bc 1506 a33e d59b bc3e ec74 3fbe
00000050: d304 56be 9651 b23d 7aa7 a03e 99e3 933e
00000060: 8567 963e 38fe 0bbd c631 973e b8fc 823e
00000070: 8220 3d3e a467 c73c 9110 7abe 05bb d13e
00000080: faa8 913e b782 a7be c0f7 95be 59ab 7ebe
00000090: 891e b43e 65ae 57be a2b7 ac3e 3c67 a8bd
000000a0: a682 84be 1cc3 7b3e 3c87 883e f4b8 31be
000000b0: 6c1c d43d e1db 01be 0e3d 403e f5ad aabe
000000c0: 7856 ae3e 088a babe 7abc d13e fd49 7b3d
000000d0: 5b44 89be d452 ccbe 2848 bebe e478 9ebe
000000e0: 43f0 59be a0ec 1cbe a865 24be 6b9a af3e
000000f0: a728 2c3e e647 db3d b95e 72be ada0 3f3e

weight f4 [128, 64]
-0.0020186007 0.054606006 0.12590672 0.09591861 0.034803614 0.015023248 -0.14855295 0.0737991
-0.12865327 0.047124177 0.048344333 0.033202365 0.08661833 -0.14520413 0.08035661 -0.20819823
0.02326121 0.08947705 0.12381956 0.0049960166 0.0316016 0.09211487 0.070740566 -0.13916557
-0.0066807964 -0.033236668 0.06512105 0.13000959 0.15509062 0.0026829413 0.11759758 0.0058082403
-0.012727606 0.10137859 0.040200565 0.10158548 0.07610815 -0.07002587 0.06482172 -0.120401695
0.25364256 -0.10988366 -0.04692328 0.07635066 -0.2329385 0.13472697 0.020240366 -0.036379337
-0.018875334 0.038458582 0.023342388 -0.10402826 -0.046643276 0.012530001 -0.05790326 -0.12246684
-0.108100116 0.09764679 0.054982778 0.031940073 -0.08677249 0.039368156 0.011607865 -0.12194279
0.11664221 0.044590622 -0.12914398 0.076169774 -0.051234916 0.11406822 -0.0010559816 0.021735186
0.09194809 0.08857002 -0.030652916 -0.03442511 -0.11835535 0.061172783 -0.075418785 0.17663585
-0.06753741 -0.09249432 -0.004400988 -0.10422817 -0.00078064064 0.030001791 -0.0032745926 0.0035304266
0.07250115 0.0035019189 -0.09115948 -0.1291579 -0.17472929 -0.030235082 0.006791912 -0.034050867
-0.023378143 -0.11267078 0.026123038 0.015909232 0.0048389845 0.04620786 -0.00029334307 -0.007058412
-0.19560724 0.10904059 0.03675119 0.109881476 0.095077835 -0.039657343 -0.00522691 0.04527232
0.086042814 0.015991198 0.064480364 -0.045107093 -0.047325984 0.12396036 -0.08412531 0.0674356
0.033466473 0.006271571 -0.08955462 0.1545663 0.15024035 0.028432103 -0.10264614 0.12681857
-0.09919502 0.09847635 0.13678208 -0.013545558 0.11335699 -0.005926859 -0.016593708 0.0061710854
0.039700177 -0.07741458 -0.057088587 0.045064613 0.059054423 0.038801245 0.025066033 -0.203826
0.008081814 0.012828675 0.08668503 0.015007973 0.08114042 0.059115123 0.010361055 -0.14153576
0.016180499 0.08835956 0.113669276 0.1249817 0.0733577 -0.019484203 -0.0726235 -0.1814526
-0.12797928 -0.053906262 0.114468336 0.0025975886 -0.019586885 0.13844486 0.010145782 -0.012131542
0.19843806 -0.027324859 -0.019268088 -0.043063 -0.14522374 -0.07022262 -0.026606798 -0.11250728
0.015526278 0.049494598 -0.07395329 -0.06780675 -0.11904744 -0.08075398 -0.11093277 -0.11168728
-0.19206509 -0.031363353 -0.042869557 -0.02263582 -0.098134756 0.15554717 0.03466907 -0.15080017
-0.06585574 -0.019038618 0.09079051 -0.049012393 0.030538395 -0.073565476 0.09133056 0.0066578686
0.14589342 -0.012140591 -0.014736912 0.04775417 -0.017948614 0.15732428 -0.09240447 0.30114445
-0.032507777 -0.10365784 -0.15390122 -0.11627619 -0.04451176 0.09973251 0.028558265 0.12928629
0.07926814 0.016489351 -0.1144667 -0.1271067 -0.1529096 0.12955825 0.069985226 -0.02313183
0.07992516 -0.01066483 0.10247975 -0.09726909 -0.024713738 -0.030994091 0.03401946 0.030423716
-0.15048873 0.05699949 -0.105042264 0.027621508 0.18615621 -0.074099615 0.08506203 0.103710786
0.13905245 -0.010927113 0.056406077 -0.015077392 -0.057471126 -0.010915779 0.0262682 -0.09060158
0.18326724 0.0917833 -0.11692347 -0.0069958563 0.12127924 -0.086427726 -0.120266065 0.02337422
00000000: 804a 04bb 8caa 5f3d b1ed 003e fa70 c43d
00000010: 3c8e 0e3d 1224 763c 441e 18be fc23 973d
00000020: afbd 03be 4805 413d b504 463d 34ff 073d
00000030: f364 b13d 64b0 14be 0292 a43d eb31 55be
00000040: 4b8e be3c be3f b73d 1c95 fd3d a0b5 a33b
00000050: ae70 013d b9a6 bc3d 6ee0 903d 6b81 0ebe
00000060: 95ea dabb 2c23 08bd 2f5e 853d 3c21 053e
00000070: 13d0 1e3e 49d4 2f3b 00d7 f03d 0d53 be3b
00000080: 7387 50bc 949f cf3d 59a9 243d 0c0c d03d
00000090: 97de 9b3d b969 8fbd 40c1 843d 2a95 f6bd
000000a0: 70dd 813e af0a e1bd a032 40bd bc5d 9c3d
000000b0: 6e87 6ebe def5 093e 20cf a53c 8002 15bd
000000c0: 72a0 9abc bf86 1d3d 8938 bf3c c50c d5bd
000000d0: 050d 3fbd a24a 4d3c f82b 6dbd e5cf fabd
000000e0: 9863 ddbd 0afb c73d 9f35 613d 98d3 023d
000000f0: c6b5 b1bd 8140 213d ea2e 3e3c 24bd f9bd
00000100: 1ce2 ee3d a8a4 363d 523e 04be e6fe 9b3d
00000110: b4db 51bd 999c e93d dd68 8aba fd0d b23c
00000120: 484f bc3d 3364 b53d d31b fbbc 5801 0dbd
00000130: 4a64 f2bd 5090 7a3d 2a75 9abd 07e0 343e
00000140: 0e51 8abd a96d bdbd 2a36 90bb 9475 d5bd
00000150: e8a3 4cba 51c6 f53c 8c9a 56bb bb5e 673b
00000160: 7c7b 943d 7380 653b d2b1 babd f841 04be
00000170: 3cec 32be 90af f7bc b08e de3b ec78 0bbd
00000180: 8583 bfbc f0bf e6bd fbff d53c 1454 823c
00000190: 5890 9e3b 7444 3d3d d7cb 99b9 404a e7bb
000001a0: 444d 48be ac50 df3d 6a88 163d 8a09 e13d
000001b0: 2bb8 c23d bd6f 22bd 8046 abbb 786f 393d
000001c0: 3737 b03d f9ff 823c 480e 843d 37c2 38bd
000001d0: e4d8 41bd eede fd3d e449 acbd ad1b 8a3d
000001e0: 2414 093d c081 cd3b 6a68 b7bd a146 1e3e
000001f0: 9bd8 193e 71ea e83c 2438 d2bd badc 013e
00000200: c226 cbbd f8ad c93d 9a10 0c3e 30ee 5dbc
00000210: b627 e83d 1936 c2bb 87ef 87bc d136 ca3b
00000220: a79c 223d 898b 9ebd b9d5 69bd ac95 383d
00000230: 0de3 713d 0eee 1e3d 4857 cd3c c3b7 50be
00000240: 9669 043c 5d2f 523c ec87 b13d 00e4 753c
00000250: f32c a63d b322 723d 6ac1 293c c0ee 10be
00000260: f78c 843c dbf5 b43d 70cb e83d 68f6 ff3d
00000270: 903c 963d 569d 9fbc a1bb 94bd b6ce 39be
00000280: 000d 03be d0cc 5cbd 606e ea3d 4e3c 2a3b
00000290: ad74 a0bc 7dc4 0d3e 7e3a 263c 60c3 46bc
000002a0: 5933 4b3e 62d8 dfbc 1cd8 9dbc d462 30bd
000002b0: 88b5 14be e1d0 8fbd 80f6 d9bc 386a e6bd
000002c0: ee61 7e3c d9ba 4a3d d374 97bd 44de 8abd
000002d0: 25cf f3bd 5862 a5bd b830 e3bd 4dbc e4bd
000002e0: b6ac 44be dc76 00bd fd97 2fbd c16e b9bc
000002f0: e0fa c8bd c247 1f3e 2801 0e3d 5c6b 1abe
00000300: 60df 86bd e0f6 9bbc 60f0 b93d 38c1 48bd
00000310: a82b fa3c 7fa9 96bd 840b bb3d 402a da3b
00000320: 1665 153e 54e9 46bc 1773 71bc e099 433d
00000330: f908 93bc 9e19 213e 8e3e bdbd 9b2f 9a3e
00000340: e026 05bd 904a d4bd 4898 1dbe 3622 eebd
00000350: f751 36bd 8f40 cc3d 06f3 e93c a063 043e
00000360: 5657 a23d ad14 873c 846d eabd 4228 02be
00000370: 5694 1cbe ebaa 043e 6a54 8f3d f77e bdbc
00000380: cdaf a33d 8abb 2ebc e7e0 d13d 0435 c7bd
00000390: 7774 cabc 52e7 fdbc fd57 0b3d 283b f93c
000003a0: b819 1abe 4c78 693d 6620 d7bd 8046 e23c
000003b0: bc9f 3e3e 8ac1 97bd 0035 ae3d 5266 d43d
000003c0: c463 0e3e a207 33bc 0f0a 673d 2a07 77bc
000003d0: d866 6bbd 18d8 32bc 6830 d73c 528d b9bd
000003e0: 68aa 3b3e e2f8 bb3d 9275 efbd 7f3d e5bb
000003f0: 4061 f83d 0501 b1bd 0e4e f6bd 4b7b bf3c

bias f4 [128]
-0.040612716 0.11328814 -0.115368575 0.021020358 0.001024523 0.058045015 -0.08914004 -0.054765314
-0.037061792 0.086870626 0.12313115 -0.07641643 0.047684263 0.13804173 0.079463355 -0.038219646
0.024148688 0.00662431 -0.08600104 0.001889289 -0.10041976 -0.09889259 0.019858792 0.12848708
0.05994785 0.05928649 -0.10158197 0.006136947 -0.0058244634 -0.02087882 0.09742347 -0.06385126
0.0012647435 0.09614016 0.039270613 0.061148226 -0.011138986 0.07638861 0.040678233 -0.006040755
0.018297212 -0.042906433 0.10609094 -0.138704 0.027690751 0.032796696 -0.114254005 0.119569875
-0.043249443 0.09101776 0.096521705 -0.09844987 -0.115858905 0.010181111 0.017969426 -0.006161041
0.00011343964 -0.062574565 -0.12056432 0.025160324 0.0843855 0.1261047 0.08782486 -0.049840555
-0.022198148 0.08152585 0.08946472 0.094245076 -0.015629163 0.0014233873 0.10058126 0.06679866
-0.073505014 -0.056378767 -0.05252251 -0.009985138 0.10123822 0.12889877 0.078751236 -0.121416934
0.098465204 -0.03664247 0.08659871 0.013588346 0.022349674 -0.0057506263 0.10173417 0.13499658
-0.10237117 -0.05680654 -0.0899804 -0.033462428 -0.08774984 0.09488628 -0.09676753 -0.123672865
-0.074868016 0.120575815 0.03972949 -0.06910461 0.032322034 -0.0023708602 -0.13809054 -0.07751267
-0.021830037 -0.00087036734 -0.062169358 -0.12289692 -0.090481505 0.008310039 -0.06864464 0.09732208
-0.113025546 -0.08257395 0.05682935 0.13670799 -0.08446813 -0.092781916 -0.052541763 0.03681309
0.011875945 -0.0723203 0.08437674 0.10607872 -0.005902794 -0.064212814 -0.06444186 -0.045959257
00000000: 8559 26bd 9d03 e83d 5c46 ecbd e332 ac3c
00000010: 4a49 863a 9cc0 6d3d 0e8f b6bd 9851 60bd
00000020: 1bce 17bd 3ae9 b13d 2f2c fc3d 3880 9cbd
00000030: 9350 433d d05a 0d3e afbd a23d 348c 1cbd
00000040: 78d3 c53c bd10 d93b 5021 b0bd 05a2 f73a
00000050: e0a8 cdbd 3388 cabd e8ae a23c 1e92 033e
00000060: e08b 753d 64d6 723d 350a d0bd 7118 c93b
00000070: 24db bebb 0f0a abbc f585 c73d 73c4 82bd
00000080: c0c5 a53a 22e5 c43d 39da 203d 9076 7a3d
00000090: 4b80 36bc a271 9c3d 389e 263d 87f1 c5bb
000000a0: 09e4 953c a8be 2fbd 3546 d93d 6c08 0ebe
000000b0: b7d7 e23c d455 063d 01fe e9bd 0de1 f43d
000000c0: 5426 31bd 8567 ba3d 2cad c53d 16a0 c9bd
000000d0: 6f47 edbd adce 263c 9e34 933c 8fe2 c9bb
000000e0: 71e6 ed38 1827 80bd 6dea f6bd 061d ce3c
000000f0: 4ed2 ac3d 9721 013e 85dd b33d 9c25 4cbd
00000100: e4d8 b5bc 06f7 a63d 4739 b73d 9003 c13d
00000110: bb08 80bc f490 ba3a 8cfd cd3d bccd 883d
00000120: cc89 96bd 6ced 66bd d821 57bd b498 23bc
00000130: fc55 cf3d 0afe 033e 5448 a13d 71a9 f8bd
00000140: 20a8 c93d 6a16 16bd aa5a b13d a7a1 5e3c
00000150: aa16 b73c c06f bcbb 015a d03d 8b3c 0a3e
00000160: faa7 d1bd f9ad 68bd a547 b8bd e60f 09bd
00000170: 30b6 b3bd bd53 c23d 0e2e c6bd 3348 fdbd
00000180: 6754 99bd 74f0 f63d 64bb 223d b886 8dbd
00000190: 1c64 043d 6f60 1bbb 9b67 0dbe f6be 9ebd
000001a0: e8d4 b2bc 5d29 64ba 4ca5 7ebd 61b1 fbbd
000001b0: 5e4e b9bd d426 083c 9095 8cbd cc50 c73d
000001c0: f079 e7bd 881c a9bd e4c5 683d 2efd 0b3e
000001d0: a0fd acbd 7204 bebd 0836 57bd 53c9 163d
000001e0: 5393 423c aa1c 94bd b6cd ac3d cd3f d93d
000001f0: 3a6c c1bb 0282 83bd 18fa 83bd c63f 3cbd

weight f4 [2, 128]
-0.011954774 -0.15876505 0.016209444 -0.09954306 0.057832267 0.08256543 -0.22919784 0.056243733
-0.18772447 0.08400195 -0.18603209 -0.11022625 -0.14916483 -0.0308657 -0.081258036 0.0061111674
0.085565396 -0.1455539 0.09966431 0.03431292 0.023484861 0.1490954 0.025327116 -0.021077579
-0.060368996 -0.023789018 -0.062446225 0.016834995 -0.14614005 0.082175165 -0.18807484 -0.14725465
0.077472165 0.006073907 0.0797041 -0.0872185 -0.115102954 -0.05626102 0.0015310049 -0.07301644
-0.07014277 0.08301685 0.08127351 -0.046069797 -0.08733643 -0.050144948 -0.0025913662 -0.047268506
0.08469459 0.010800053 -0.16846544 0.046618067 0.06307268 -0.02043827 0.15179728 -0.06651479
0.10648108 0.023561403 0.114412345 0.025445638 -0.045337174 -0.061129995 -0.021887325 -0.0010346398
-0.001239792 0.12599622 0.049006876 -0.008984582 0.10957822 0.12197157 0.062697075 0.111237295
-0.15479364 0.079810955 0.015742652 0.077791564 0.004801981 -0.17752285 0.0756846 -0.03741207
0.059643194 -0.18003051 -0.13210604 0.11735292 0.058557227 0.026780248 -0.06893337 -0.065301955
-0.080470845 0.0023033766 0.07075732 -0.098554075 0.1490621 0.036211353 0.050389957 0.09954834
-0.21769921 -0.0153472945 -0.006669257 0.105606206 -0.010435462 -0.084943205 0.07142504 -0.015118866
0.101365164 -0.08235396 -0.0073643327 0.09136499 0.006281629 0.09376443 -0.026039261 0.13503459
-0.04133964 0.06305983 0.00097336544 -0.12667868 0.14287592 -0.0374109 0.00026702136 0.14526024
0.09718515 -0.04230339 -0.075592674 -0.10261237 0.06208222 0.012256307 -0.07528805 -0.05549127
-0.09035609 0.018040752 -0.11282274 0.05485286 0.022317097 -0.06029397 0.21721758 -0.12749404
0.14639376 0.021698486 0.16484658 -0.045398172 0.14485481 0.112600155 0.012323135 0.022281013
-0.026135229 0.14606427 -0.16610435 -0.06916201 -0.07930377 -0.063067436 -0.0022960752 0.120145656
0.0063607916 -0.036070663 -0.07565011 -0.060007952 0.0984798 -0.11365149 0.076322325 0.074767634
-0.006906388 -0.032985557 -0.008842665 -0.019698508 -0.023998752 0.077849194 0.06324033 0.08548484
-0.033839256 0.08159851 -0.10683495 -0.08185326 0.08770153 -0.085843384 -0.114320256 0.049163308
-0.08302911 -0.10573823 0.06391548 -0.08161688 -0.07872047 -0.07014459 -0.011643515 -0.07393791
0.05105416 0.054712452 0.037160106 -0.11690513 0.032490604 -0.020547368 0.1320183 -0.072368495
0.025389908 -0.019044591 -0.082733005 -0.12582387 -0.084265605 -0.1622704 0.023559581 -0.10464658
0.13796264 0.027774699 -0.075179085 0.026623467 -0.030133732 0.1294705 -0.008672995 -0.037246045
-0.0061686924 0.064638235 0.010001935 -0.12626699 -0.19276066 0.019829758 0.08894321 0.15650515
0.032354534 -0.027898615 -0.091168106 0.107196584 -0.124338925 0.057048894 -0.051041517 -0.09600511
0.0942544 0.010945933 -0.061269652 -0.19551714 0.04853935 0.013666278 -0.012815022 -0.10476183
-0.112797454 0.1035169 0.014316201 0.0068897624 -0.07068982 -0.07785614 0.06515654 -0.019018129
0.007678166 -0.051995385 -0.10508251 0.025826488 0.0032541503 -0.039134156 0.042061083 -0.053151958
0.016690169 0.024932094 0.076448 0.08077552 0.08214458 -0.003507234 0.06045007 -0.083954334
00000000: f5dd 43bc 4e93 22be abc9 843c 3bdd cbbd
00000010: 87e1 6c3d 1018 a93d d7b2 6abe d45f 663d
00000020: d83a 40be 3709 ac3d 327f 3ebe 4dbe e1bd
00000030: aabe 18be 11da fcbc 9d6a a6bd 3040 c83b
00000040: e93c af3d 150c 15be cd1c cc3d b48b 0c3d
00000050: 5363 c03c 77ac 183e d07a cf3c e3aa acbc
00000060: 7b45 77bd 30e1 c2bc 9dc7 7fbd 8be9 893c
00000070: bda5 15be 744b a83d b196 40be ecc9 16be
00000080: baa9 9e3d a007 c73b e73b a33d 9d9f b2bd
00000090: 19bb ebbd f571 66bd 00ac c83a a589 95bd
000000a0: 03a7 8fbd bd04 aa3d ba72 a63d afb3 3cbd
000000b0: 71dd b2bd ca64 4dbd e9d3 29bb 9f9c 41bd
000000c0: 5b74 ad3d b5f2 303c 3482 2cbe 96f2 3e3d
000000d0: 402c 813d 296e a7bc bf70 1b3e e838 88bd
000000e0: c112 da3d d803 c13c 0551 ea3d 5f73 d03c
000000f0: 79b3 39bd 7263 7abd 0c4d b3bc c09c 87ba
00000100: 8480 a2ba 2705 013e 6fbb 483d 1134 13bc
00000110: 8c6a e03d 3bcc f93d 5367 803d 61d0 e33d
00000120: 3982 1ebe ed73 a33d bcf6 803c 2f51 9f3d
00000130: f059 9d3b 8dc8 35be 8700 9b3d 663d 19bd
00000140: 6c4c 743d eb59 38be ce46 07be ba56 f03d
00000150: b4d9 6f3d 4062 db3c f02c 8dbd 08bd 85bd
00000160: e6cd a4bd 3ff4 163b 37e9 903d b8d6 c9bd
00000170: bca3 183e 5b52 143d b365 4e3d 00e0 cb3d
00000180: 8bec 5ebe 3873 7bbc c889 dabb 1148 d83d
00000190: 80f9 2abc b4f6 adbd 4b47 923d 1fb5 77bc
000001a0: 8a98 cf3d 31a9 a8bd 8050 f1bb 911d bb3d
000001b0: 20d6 cd3b 9107 c03d 4a50 d5bc 8246 0a3e
000001c0: c153 29bd 8325 813d 7329 7f3a 0eb8 01be
000001d0: 114e 123e 2c3c 19bd 00ff 8b39 1abf 143e
000001e0: 0209 c73d 5246 2dbd 55d0 9abd 6f26 d2bd
000001f0: ed49 7e3d adce 483c 9f30 9abd d04a 63bd
00000200: 9d0c b9bd 33ca 933c 9c0f e7bd 64ad 603d
00000210: 58d2 b63c cff6 76bd 496e 5e3e cc8d 02be
00000220: 3fe8 153e 06c1 b13c 8bcd 283e 6ff3 39bd
00000230: d254 143e e99a e63d f9e6 493c ac86 b63c
00000240: 8c19 d6bc df91 153e 4217 2abe d0a4 8dbd
00000250: 046a a2bd 8029 81bd c079 16bb ed0e f63d
00000260: 306e d03b d5be 13bd 72ee 9abd e6ca 75bd
00000270: c7af c93d 1dc2 e8bd e14e 9c3d c61f 993d
00000280: fb4e e2bb dd1b 07bd d3e0 10bc c45e a1bc
00000290: 0899 c4bc 666f 9f3d 2584 813d ad12 af3d
000002a0: 089b 0abd 1f1d a73d 48cc dabd afa2 a7bd
000002b0: dc9c b33d a8ce afbd bd20 eabd 775f 493d
000002c0: 2b0b aabd 498d d8bd 1fe6 823d c026 a7bd
000002d0: 3338 a1bd f8a7 8fbd 71c4 3ebc c26c 97bd
000002e0: 2b1e 513d 2a1a 603d 3235 183d f56b efbd
000002f0: de14 053d f452 a8bc ce2f 073e ef35 94bd
00000300: 7ffe cf3c 6703 9cbc ec6f a9bd f9d7 00be
00000310: 7293 acbd 362a 26be 0600 c13c f250 d6bd
00000320: 1446 0d3e c487 e33c 7ef7 99bd 7519 da3c
00000330: 04db f6bc ea93 043e 2d19 0ebc 4f8f 18bd
00000340: be22 cabb 0d61 843d 28df 233c 224c 01be
00000350: 0d63 45be 0472 a23c dc27 b63d e342 203e
00000360: 3086 043d a38b e4bc 58b6 babd e289 db3d
00000370: 68a5 febd 1aac 693d e910 51bd 549e c4bd
00000380: 7308 c13d 9256 333c e3f5 7abd a535 48be
00000390: 33d1 463d 86e8 5f3c 19f6 51bc 5f8d d6bd
000003a0: 5a02 e7bd ab00 d43d 808e 6a3c 84c3 e13b
000003b0: d3c5 90bd 0a73 9fbd cb70 853d e8cb 9bbc
000003c0: 2099 fb3b 1df9 54bd 8035 d7bd 1292 d33c
000003d0: 9543 553b 234b 20bd 3e48 2c3d deb5 59bd
000003e0: d2b9 883c 643e cc3c c590 9c3d a36d a53d
000003f0: 6b3b a83d 9fd9 65bb 7e9a 773d 40f0 abbd

bias f4 [2]
0.015647221 0.045930184
00000000: 9a2e 803c 4a21 3c3d
